device = cpu
simulation_speed = 1
state_size = 12288
action_size = 2
hidden_size = 512
input_size = 12288
batch_size = 128
buffer_size = 1000000
discount_factor = 0.99
learning_rate = 0.003
tau = 0.003
step_time = 0.01
loss_function = <function smooth_l1_loss at 0x7bc4ede24dc0>
epsilon = 1.0
epsilon_decay = 0.9995
epsilon_minimum = 0.05
reward_function = A
backward_enabled = False
stacking_enabled = False
stack_depth = 3
frame_skip = 4
networks = [CnnEncoder(
  (conv): Sequential(
    (0): Conv2d(3, 32, kernel_size=(4, 4), stride=(2, 2), padding=(1, 1))
    (1): ELU(alpha=1.0)
    (2): Conv2d(32, 64, kernel_size=(4, 4), stride=(2, 2), padding=(1, 1))
    (3): ELU(alpha=1.0)
    (4): Conv2d(64, 128, kernel_size=(4, 4), stride=(2, 2), padding=(1, 1))
    (5): ELU(alpha=1.0)
    (6): AdaptiveAvgPool2d(output_size=(4, 4))
    (7): Flatten(start_dim=1, end_dim=-1)
  )
  (fc): Sequential(
    (0): Linear(in_features=2048, out_features=512, bias=True)
    (1): ELU(alpha=1.0)
    (2): Linear(in_features=512, out_features=256, bias=True)
    (3): ELU(alpha=1.0)
  )
), RSSM(
  (gru): GRUCell(258, 256)
  (prior): Sequential(
    (0): Linear(in_features=256, out_features=512, bias=True)
    (1): ELU(alpha=1.0)
    (2): Linear(in_features=512, out_features=256, bias=True)
  )
  (posterior): Sequential(
    (0): Linear(in_features=512, out_features=512, bias=True)
    (1): ELU(alpha=1.0)
    (2): Linear(in_features=512, out_features=256, bias=True)
  )
), CnnDecoder(
  (fc): Sequential(
    (0): Linear(in_features=512, out_features=512, bias=True)
    (1): ELU(alpha=1.0)
    (2): Linear(in_features=512, out_features=2048, bias=True)
    (3): ELU(alpha=1.0)
  )
  (deconv): Sequential(
    (0): ConvTranspose2d(128, 64, kernel_size=(4, 4), stride=(2, 2), padding=(1, 1))
    (1): ELU(alpha=1.0)
    (2): ConvTranspose2d(64, 32, kernel_size=(4, 4), stride=(2, 2), padding=(1, 1))
    (3): ELU(alpha=1.0)
    (4): ConvTranspose2d(32, 3, kernel_size=(4, 4), stride=(2, 2), padding=(1, 1))
  )
), RewardHead(
  (net): Sequential(
    (0): Linear(in_features=512, out_features=512, bias=True)
    (1): ELU(alpha=1.0)
    (2): Linear(in_features=512, out_features=512, bias=True)
    (3): ELU(alpha=1.0)
    (4): Linear(in_features=512, out_features=255, bias=True)
  )
), ContinueHead(
  (net): Sequential(
    (0): Linear(in_features=512, out_features=512, bias=True)
    (1): ELU(alpha=1.0)
    (2): Linear(in_features=512, out_features=1, bias=True)
  )
), Actor(
  (backbone): Sequential(
    (0): Linear(in_features=512, out_features=512, bias=True)
    (1): ELU(alpha=1.0)
    (2): Linear(in_features=512, out_features=512, bias=True)
    (3): ELU(alpha=1.0)
  )
  (mean): Linear(in_features=512, out_features=2, bias=True)
  (std): Linear(in_features=512, out_features=2, bias=True)
), Critic(
  (net): Sequential(
    (0): Linear(in_features=512, out_features=512, bias=True)
    (1): ELU(alpha=1.0)
    (2): Linear(in_features=512, out_features=512, bias=True)
    (3): ELU(alpha=1.0)
    (4): Linear(in_features=512, out_features=255, bias=True)
  )
), Critic(
  (net): Sequential(
    (0): Linear(in_features=512, out_features=512, bias=True)
    (1): ELU(alpha=1.0)
    (2): Linear(in_features=512, out_features=512, bias=True)
    (3): ELU(alpha=1.0)
    (4): Linear(in_features=512, out_features=255, bias=True)
  )
)]
iteration = 0
image_size = 64
image_channels = 3
sequence_length = 16
horizon = 15
embed_size = 256
deter_size = 256
stoch_size = 16
stoch_classes = 16
num_bins = 255
free_bits = 1.0
kl_coef = 0.5
lam = 0.95
entropy_coef = 0.0003
actor_lr = 3e-05
critic_lr = 3e-05
world_lr = 0.0001
bins = tensor([… )
encoder = CnnEncoder(
  (conv): Sequential(
    (0): Conv2d(3, 32, kernel_size=(4, 4), stride=(2, 2), padding=(1, 1))
    (1): ELU(alpha=1.0)
    (2): Conv2d(32, 64, kernel_size=(4, 4), stride=(2, 2), padding=(1, 1))
    (3): ELU(alpha=1.0)
    (4): Conv2d(64, 128, kernel_size=(4, 4), stride=(2, 2), padding=(1, 1))
    (5): ELU(alpha=1.0)
    (6): AdaptiveAvgPool2d(output_size=(4, 4))
    (7): Flatten(start_dim=1, end_dim=-1)
  )
  (fc): Sequential(
    (0): Linear(in_features=2048, out_features=512, bias=True)
    (1): ELU(alpha=1.0)
    (2): Linear(in_features=512, out_features=256, bias=True)
    (3): ELU(alpha=1.0)
  )
)
rssm = RSSM(
  (gru): GRUCell(258, 256)
  (prior): Sequential(
    (0): Linear(in_features=256, out_features=512, bias=True)
    (1): ELU(alpha=1.0)
    (2): Linear(in_features=512, out_features=256, bias=True)
  )
  (posterior): Sequential(
    (0): Linear(in_features=512, out_features=512, bias=True)
    (1): ELU(alpha=1.0)
    (2): Linear(in_features=512, out_features=256, bias=True)
  )
)
decoder = CnnDecoder(
  (fc): Sequential(
    (0): Linear(in_features=512, out_features=512, bias=True)
    (1): ELU(alpha=1.0)
    (2): Linear(in_features=512, out_features=2048, bias=True)
    (3): ELU(alpha=1.0)
  )
  (deconv): Sequential(
    (0): ConvTranspose2d(128, 64, kernel_size=(4, 4), stride=(2, 2), padding=(1, 1))
    (1): ELU(alpha=1.0)
    (2): ConvTranspose2d(64, 32, kernel_size=(4, 4), stride=(2, 2), padding=(1, 1))
    (3): ELU(alpha=1.0)
    (4): ConvTranspose2d(32, 3, kernel_size=(4, 4), stride=(2, 2), padding=(1, 1))
  )
)
reward_head = RewardHead(
  (net): Sequential(
    (0): Linear(in_features=512, out_features=512, bias=True)
    (1): ELU(alpha=1.0)
    (2): Linear(in_features=512, out_features=512, bias=True)
    (3): ELU(alpha=1.0)
    (4): Linear(in_features=512, out_features=255, bias=True)
  )
)
continue_head = ContinueHead(
  (net): Sequential(
    (0): Linear(in_features=512, out_features=512, bias=True)
    (1): ELU(alpha=1.0)
    (2): Linear(in_features=512, out_features=1, bias=True)
  )
)
world_optimizer = Adam (
Parameter Group 0
    amsgrad: False
    betas: (0.9, 0.999)
    eps: 1e-05
    lr: 0.0001
    weight_decay: 0
)
actor_optimizer = Adam (
Parameter Group 0
    amsgrad: False
    betas: (0.9, 0.999)
    eps: 1e-05
    lr: 3e-05
    weight_decay: 0
)
critic_optimizer = Adam (
Parameter Group 0
    amsgrad: False
    betas: (0.9, 0.999)
…
