device = cpu
simulation_speed = 1
state_size = 9216
action_size = 2
hidden_size = 512
input_size = 9216
batch_size = 128
buffer_size = 1000000
discount_factor = 0.99
learning_rate = 0.003
tau = 0.003
step_time = 0.01
loss_function = <function smooth_l1_loss at 0x763c9f6bd310>
epsilon = 1.0
epsilon_decay = 0.9995
epsilon_minimum = 0.05
reward_function = A
backward_enabled = False
stacking_enabled = False
stack_depth = 3
frame_skip = 4
networks = [CnnEncoder(
  (conv): Sequential(
    (0): Conv2d(4, 32, kernel_size=(4, 4), stride=(2, 2), padding=(1, 1))
    (1): SiLU()
    (2): Conv2d(32, 64, kernel_size=(4, 4), stride=(2, 2), padding=(1, 1))
    (3): SiLU()
    (4): Conv2d(64, 128, kernel_size=(4, 4), stride=(2, 2), padding=(1, 1))
    (5): SiLU()
    (6): Conv2d(128, 128, kernel_size=(3, 3), stride=(1, 1), padding=(1, 1))
    (7): SiLU()
    (8): AdaptiveAvgPool2d(output_size=(4, 4))
    (9): Flatten(start_dim=1, end_dim=-1)
  )
  (fc): Sequential(
    (0): Linear(in_features=2048, out_features=256, bias=True)
    (1): LayerNorm((256,), eps=1e-05, elementwise_affine=True)
    (2): SiLU()
    (3): Linear(in_features=256, out_features=256, bias=True)
    (4): LayerNorm((256,), eps=1e-05, elementwise_affine=True)
    (5): SiLU()
  )
), RSSM(
  (pre_gru): Sequential(
    (0): Linear(in_features=258, out_features=256, bias=True)
    (1): LayerNorm((256,), eps=1e-05, elementwise_affine=True)
    (2): SiLU()
  )
  (gru): GRUCell(256, 256)
  (gru_norm): LayerNorm((256,), eps=1e-05, elementwise_affine=True)
  (prior): MLP(
    (net): Sequential(
      (0): Linear(in_features=256, out_features=256, bias=True)
      (1): LayerNorm((256,), eps=1e-05, elementwise_affine=True)
      (2): SiLU()
      (3): Linear(in_features=256, out_features=256, bias=True)
    )
  )
  (posterior): MLP(
    (net): Sequential(
      (0): Linear(in_features=512, out_features=256, bias=True)
      (1): LayerNorm((256,), eps=1e-05, elementwise_affine=True)
      (2): SiLU()
      (3): Linear(in_features=256, out_features=256, bias=True)
    )
  )
), CnnDecoder(
  (fc): Sequential(
    (0): Linear(in_features=512, out_features=256, bias=True)
    (1): LayerNorm((256,), eps=1e-05, elementwise_affine=True)
    (2): SiLU()
    (3): Linear(in_features=256, out_features=2048, bias=True)
    (4): LayerNorm((2048,), eps=1e-05, elementwise_affine=True)
    (5): SiLU()
  )
  (deconv): Sequential(
    (0): ConvTranspose2d(128, 64, kernel_size=(4, 4), stride=(2, 2), padding=(1, 1))
    (1): SiLU()
    (2): ConvTranspose2d(64, 32, kernel_size=(4, 4), stride=(2, 2), padding=(1, 1))
    (3): SiLU()
    (4): ConvTranspose2d(32, 4, kernel_size=(4, 4), stride=(2, 2), padding=(1, 1))
  )
), RewardHead(
  (net): MLP(
    (net): Sequential(
      (0): Linear(in_features=512, out_features=256, bias=True)
      (1): LayerNorm((256,), eps=1e-05, elementwise_affine=True)
      (2): SiLU()
      (3): Linear(in_features=256, out_features=256, bias=True)
      (4): LayerNorm((256,), eps=1e-05, elementwise_affine=True)
      (5): SiLU()
      (6): Linear(in_features=256, out_features=255, bias=True)
    )
  )
), ContinueHead(
  (net): MLP(
    (net): Sequential(
      (0): Linear(in_features=512, out_features=256, bias=True)
      (1): LayerNorm((256,), eps=1e-05, elementwise_affine=True)
      (2): SiLU()
      (3): Linear(in_features=256, out_features=256, bias=True)
      (4): LayerNorm((256,), eps=1e-05, elementwise_affine=True)
      (5): SiLU()
      (6): Linear(in_features=256, out_features=1, bias=True)
    )
  )
), Actor(
  (backbone): MLP(
    (net): Sequential(
      (0): Linear(in_features=512, out_features=256, bias=True)
      (1): LayerNorm((256,), eps=1e-05, elementwise_affine=True)
      (2): SiLU()
      (3): Linear(in_features=256, out_features=256, bias=True)
      (4): LayerNorm((256,), eps=1e-05, elementwise_affine=True)
      (5): SiLU()
      (6): Linear(in_features=256, out_features=256, bias=True)
    )
  )
  (mean_head): Linear(in_features=256, out_features=2, bias=True)
  (std_head): Linear(in_features=256, out_features=2, bias=True)
), Critic(
  (net): MLP(
    (net): Sequential(
      (0): Linear(in_features=512, out_features=256, bias=True)
      (1): LayerNorm((256,), eps=1e-05, elementwise_affine=True)
      (2): SiLU()
      (3): Linear(in_features=256, out_features=256, bias=True)
      (4): LayerNorm((256,), eps=1e-05, elementwise_affine=True)
      (5): SiLU()
      (6): Linear(in_features=256, out_features=255, bias=True)
    )
  )
), Critic(
  (net): MLP(
    (net): Sequential(
      (0): Linear(in_features=512, out_features=256, bias=True)
      (1): LayerNorm((256,), eps=1e-05, elementwise_affine=True)
      (2): SiLU()
      (3): Linear(in_features=256, out_features=256, bias=True)
      (4): LayerNorm((256,), eps=1e-05, elementwise_affine=True)
      (5): SiLU()
      (6): Linear(in_features=256, out_features=255, bias=True)
    )
  )
)]
iteration = 0
image_size = 48
image_channels = 4
sequence_length = 16
horizon = 15
embed_size = 256
deter_size = 256
stoch_size = 16
stoch_classes = 16
num_bins = 255
free_bits = 1.0
kl_coef = 0.5
lam = 0.95
entropy_coef = 0.0003
world_lr = 0.0001
actor_lr = 3e-05
critic_lr = 3e-05
critic_ema = 0.02
grad_clip = 10.0
dreamer_hidden = 256
observe_steps = 5000
accumulator = <turtlebot3_drl.common.lidar_accumulator.BEVAccumulator object at 0x763bb175a8e0>
reconstructor = <turtlebot3_drl.drl_utils.bev_reconstructor.BEVReconstructor object at 0x763bb175aa30>
raw_buffer = <turtlebot3_drl.drl_agent.off_policy_agent.RawLiDARReplayBuffer object at 0x763bb175a9d0>
current_goal_pose = [0. 0. 0.]
_last_raw_state = None
bins = tensor([… )
encoder = CnnEncoder(
  (conv): Sequential(
    (0): Conv2d(4, 32, kernel_size=(4, 4), stride=(2, 2), padding=(1, 1))
    (1): SiLU()
    (2): Conv2d(32, 64, kernel_size=(4, 4), stride=(2, 2), padding=(1, 1))
    (3): SiLU()
    (4): Conv2d(64, 128, kernel_size=(4, 4), stride=(2, 2), padding=(1, 1))
    (5): SiLU()
    (6): Conv2d(128, 128, kernel_size=(3, 3), stride=(1, 1), padding=(1, 1))
    (7): SiLU()
    (8): AdaptiveAvgPool2d(output_size=(4, 4))
    (9): Flatten(start_dim=1, end_dim=-1)
  )
  (fc): Sequential(
    (0): Linear(in_features=2048, out_features=256, bias=True)
    (1): LayerNorm((256,), eps=1e-05, elementwise_affine=True)
    (2): SiLU()
    (3): Linear(in_features=256, out_features=256, bias=True)
    (4): LayerNorm((256,), eps=1e-05, elementwise_affine=True)
    (5): SiLU()
  )
)
rssm = RSSM(
  (pre_gru): Sequential(
    (0): Linear(in_features=258, out_features=256, bias=True)
    (1): LayerNorm((256,), eps=1e-05, elementwise_affine=True)
    (2): SiLU()
  )
  (gru): GRUCell(256, 256)
  (gru_norm): LayerNorm((256,), eps=1e-05, elementwise_affine=True)
  (prior): MLP(
    (net): Sequential(
      (0): Linear(in_features=256, out_features=256, bias=True)
      (1): LayerNorm((256,), eps=1e-05, elementwise_affine=True)
      (2): SiLU()
      (3): Linear(in_features=256, out_features=256, bias=True)
    )
  )
  (posterior): MLP(
    (net): Sequential(
      (0): Linear(in_features=512, out_features=256, bias=True)
      (1): LayerNorm((256,), eps=1e-05, elementwise_affine=True)
      (2): SiLU()
      (3): Linear(in_features=256, out_features=256, bias=True)
    )
  )
)
decoder = CnnDecoder(
  (fc): Sequential(
    (0): Linear(in_features=512, out_features=256, bias=True)
    (1): LayerNorm((256,), eps=1e-05, elementwise_affine=True)
    (2): SiLU()
    (3): Linear(in_features=256, out_features=2048, bias=True)
    (4): LayerNorm((2048,), eps=1e-05, elementwise_affine=True)
    (5): SiLU()
  )
  (deconv): Sequential(
    (0): ConvTranspose2d(128, 64, kernel_size=(4, 4), stride=(2, 2), padding=(1, 1))
    (1): SiLU()
    (2): ConvTranspose2d(64, 32, kernel_size=(4, 4), stride=(2, 2), padding=(1, 1))
    (3): SiLU()
    (4): ConvTranspose2d(32, 4, kernel_size=(4, 4), stride=(2, 2), padding=(1, 1))
  )
)
reward_head = RewardHead(
  (net): MLP(
    (net): Sequential(
      (0): Linear(in_features=512, out_features=256, bias=True)
      (1): LayerNorm((256,), eps=1e-05, elementwise_affine=True)
      (2): SiLU()
      (3): Linear(in_features=256, out_features=256, bias=True)
      (4): LayerNorm((256,), eps=1e-05, elementwise_affine=True)
      (5): SiLU()
      (6): Linear(in_features=256, out_features=255, bias=True)
    )
  )
)
continue_head = ContinueHead(
  (net): MLP(
    (net): Sequential(
      (0): Linear(in_features=512, out_features=256, bias=True)
      (1): LayerNorm((256,), eps=1e-05, elementwise_affine=True)
      (2): SiLU()
      (3): Linear(in_features=256, out_features=256, bias=True)
      (4): LayerNorm((256,), eps=1e-05, elementwise_affine=True)
      (5): SiLU()
      (6): Linear(in_features=256, out_features=1, bias=True)
    )
  )
)
world_optimizer = Adam (
Parameter Group 0
    amsgrad: False
    betas: (0.9, 0.999)
    eps: 1e-05
    lr: 0.0001
    weight_decay: 0
)
actor_optimizer = Adam (
Parameter Group 0
    amsgrad: False
    betas: (0.9, 0.999)
    eps: 1e-05
    lr: 3e-05
    weight_decay: 0
)
critic_optimizer = Adam (
Parameter Group 0
    amsgrad: False
    betas: (0.9, 0.999)
…
